FinalModel_4CH.pth (torch, 237208 bytes, 26 tensors)

conv1.weight f4 [16, 4, 9]
000000 d8 ad d4 3c a8 df a6 bc 90 2e 40 bd 5e 8e b4 bd
       0.025961801 -0.02037032 -0.046919405 -0.08816217
000010 0d 68 2d 3e 8f 44 32 3e b8 9e 89 3e 00 1f 07 3e
       0.16934223 0.17408966 0.26878905 0.1319542
000020 99 97 fb 3d 5a 01 f5 bd a3 72 71 be aa ac 30 bd
       0.12284774 -0.119631484 -0.23578887 -0.043133415
000030 58 66 e1 bd 9e 64 05 be e2 13 42 be e2 ab b7 bd
       -0.11005849 -0.13026664 -0.18952897 -0.08968331
000040 11 49 89 bc f3 f6 3b bd a3 d5 85 be 7b a7 15 3e
       -0.016758474 -0.045889806 -0.26139554 0.1461467
000050 25 6d b9 3d 31 0c 70 be 72 98 e6 3d 10 48 ad bc
       0.09054021 -0.2344215 0.112595454 -0.021152526
000060 03 90 cd bd 53 09 0b 3d 9d 0b fb bc 2f 59 b2 3d
       -0.10037234 0.03394444 -0.030645186 0.08708417
000070 3e 9f 44 3d d8 e2 cb 3d 19 98 4c 3e 5c 2b d8 3d
       0.048003428 0.099553764 0.19979896 0.10555145
000080 27 71 ef 3a b9 a1 57 3d c3 57 84 bd ca 4a 59 bd
       0.0018267975 0.052644465 -0.06462052 -0.05304984
000090 d4 63 82 3d d5 14 03 be da cd 0b be 76 5c ea 3d
       0.06366697 -0.12800916 -0.13652745 0.11443417
0000a0 c1 f8 de 3d cf 2e ed bd 7a 04 89 3d 90 1a 86 bd
       0.1088729 -0.11581194 0.06690307 -0.06548035
0000b0 40 d4 ab 3d 55 07 dd bd 4a 0e 94 bd 5a 77 f4 bd
       0.08390093 -0.10792414 -0.07229288 -0.11936827
0000c0 61 2d c9 3d 0d 54 cc 3d 15 7a e1 3d fa 49 9f 3c
       0.098231085 0.09976969 0.110096134 0.019444454
0000d0 37 cc 51 3d c5 42 b8 bd 6f db 0a be 1a 46 27 be
       0.051220145 -0.0899711 -0.1356027 -0.16335335
0000e0 ea d2 61 be f6 d6 e6 bd c5 f8 0e 3e 05 20 2f 3e
       -0.22053114 -0.11271469 0.13962086 0.17102058
0000f0 ad 96 45 3e 41 a9 e9 3c d0 a5 b6 3d ef 79 a5 be
       0.1929576 0.02852309 0.08918345 -0.3231959
000100 2b 48 b4 be 69 0f 82 3d 23 ab 82 3c 15 de 1a bc
       -0.3521131 0.063505955 0.015950745 -0.009452363
000110 67 9b c6 bc 3b 78 34 3c e9 cc 87 3e 9a 9d b1 3e
       -0.024244023 0.011014993 0.26523522 0.34690553
000120 1f eb c6 3d 88 a4 65 3d 47 b6 68 3e 0d fd 02 3e
       0.097128145 0.056065112 0.22725783 0.12791844
000130 bb b4 18 3e c6 d4 fa 3d a6 95 36 3e d8 c7 bf 3d
       0.14912693 0.122476146 0.17830524 0.09364289
000140 cf 40 b8 3c 99 98 89 bd 66 79 69 be d0 24 83 be
       0.02249184 -0.06718559 -0.22800216 -0.25614023
000150 bf 22 4f be 9d 96 23 be b2 21 65 3d bb b2 d5 bc
       -0.20228098 -0.15975423 0.055940337 -0.026086202
000160 5c 4c 47 bd cd af 12 3d 94 ce ec bc 25 a2 2e 3d
       -0.048656806 0.035812188 -0.028907098 0.0426351
000170 c1 ac f8 3d b2 76 04 3c fe f5 28 be c1 b3 af 3d
       0.12142325 0.00808494 -0.16500089 0.08579207
000180 51 d3 de 3d c7 b8 d3 bc 80 1f d3 bd f7 0c 4d 3e
       0.10880149 -0.025844945 -0.103087425 0.20024477
000190 33 2c ed bd 29 27 16 3c 7f 1c 16 bd ba 20 9f 3d
       -0.11580696 0.00916461 -0.03664827 0.07769914
0001a0 2e d6 23 be 72 3c 0a bd 3e d2 94 3d 52 e4 79 be
       -0.15999672 -0.03374905 0.07266663 -0.24403504
0001b0 cb e1 13 3e ee 8f 7d 3e 16 21 61 3e ce 9f 56 3e
       0.14441602 0.24761936 0.21985278 0.20959398
0001c0 17 b9 66 3d 41 9b 67 be 9d 30 fb bd 2b d9 8d bd
       0.05632886 -0.22617818 -0.122651316 -0.06926187
0001d0 58 c9 da bb 26 fe ad 3d bd 18 5d 3e 77 db 08 bd
       -0.006676834 0.084957406 0.21591468 -0.033412423
0001e0 01 62 db 3d 72 50 0e bb af 65 05 bd 55 47 42 bd
       0.10712052 -0.002171543 -0.032567676 -0.04743131
0001f0 b0 29 13 3d 03 e4 64 bd f6 33 ce bd e4 d1 b0 3d
       0.03592843 -0.05588151 -0.100685045 0.086337835
000200 73 b8 ba bd fa b6 87 3c b3 d6 5e be 89 2f ce bd
       -0.09117212 0.016566742 -0.21761589 -0.1006766
000210 ad 2a 16 3e 36 e9 18 be 65 10 0b 3e ea eb 1c 3e
       0.14664717 -0.14932713 0.13580473 0.15324369
000220 1f 2d 09 be 82 0f 35 3d 46 25 32 be a2 8c a4 bc
       -0.13396119 0.044204243 -0.17397031 -0.02008659
000230 ee 75 6f be e8 f3 ab 3d b1 52 47 be 4a b9 25 be
       -0.2338483 0.08396131 -0.19465138 -0.16183963
000240 09 46 21 3e 42 b4 0a 3e e6 c3 13 be 54 38 c6 3d
       0.15749373 0.13545325 -0.14430198 0.096787125
000250 13 27 21 3d fa 91 80 bd 44 58 96 3d c6 bf 81 bd
       0.039343905 -0.06277843 0.07341054 -0.06335406
000260 70 7f 4c be 2f e9 f3 3c f7 6b 15 be 71 c5 13 3e
       -0.19970489 0.029774277 -0.14591967 0.14430787
000270 ea 5a 09 3e 1b 0c 60 be 48 70 cd 3c dd 2b bf 3d
       0.13413587 -0.21879618 0.025077954 0.09334538
000280 8c b7 35 3a f7 2f ec 3d ce ff 9b be f2 03 fb 3d
       0.00069319527 0.11532586 -0.304686 0.12256612
000290 bc f9 0c 3e f0 5b 84 be 2a 47 04 bd 27 3a f4 bc
       0.13767141 -0.25851393 -0.03229443 -0.029812885
0002a0 98 71 70 3e b3 e0 b0 3d 2a 0f d8 3d 78 55 88 3d
       0.23480833 0.08636608 0.10549767 0.06656927
0002b0 8a 0a 36 bd 62 5b 0f be 82 0e 46 3e 7e 38 80 3e
       -0.044443645 -0.13999704 0.19341472 0.250431
0002c0 0e b1 85 3e cd 39 81 bd d3 70 29 3d 81 ab cc bd
       0.26111645 -0.06309853 0.041367363 -0.09993649
0002d0 a9 fb 9f bc c4 25 b1 3d 17 59 6e bd 3e a1 ab bd
       -0.01952918 0.08649781 -0.05819043 -0.08380364
0002e0 48 13 0c 3e 26 60 88 bc 81 71 26 bd 76 b1 e6 3c
       0.1367923 -0.01664741 -0.04063559 0.028160792
0002f0 2f 67 56 bd 7c 1a fb bd 84 4d 90 bd d9 c5 0d be
       -0.052344497 -0.12260911 -0.07046035 -0.13845004
000300 57 78 1e 3e d2 0e 84 3e df 26 27 3e 04 5e 11 be
       0.15475594 0.25792557 0.16323422 -0.1419602
000310 93 95 83 3b 9c cb d1 bd fe 61 0d be 88 03 7a 3c
       0.0040156334 -0.102439135 -0.13806912 0.015259631
000320 b6 4c 17 be 27 6a 27 bd 36 82 86 3e 6a 4a 90 3e
       -0.14775357 -0.04087272 0.26271218 0.28181773
000330 e6 8c 61 bd 65 e8 d1 bd 71 cf 15 bd 3f ba aa 3e
       -0.05506601 -0.10249404 -0.036574785 0.3334522
000340 f7 91 1f bc 5d e9 1d be da 99 0b be f0 88 22 3d
       -0.009739391 -0.15421052 -0.13632908 0.039681375
000350 52 80 ae 3c 1e 34 7f bd 02 cb 40 be 6a cd 06 3e
       0.021301422 -0.062305562 -0.18827441 0.13164297
000360 2c 23 f9 bd ad 67 f0 3c dd 2e e2 3d 20 8d 55 be
       -0.12164912 0.029346311 0.11044095 -0.20854616
000370 47 0a 3d be 1e 11 f6 bc ae 25 85 bd 84 52 0b be
       -0.18460952 -0.030037459 -0.065013275 -0.13605696
000380 b4 c5 0f 3e 65 f7 32 3e 20 47 34 3e d3 f5 65 3e
       0.14040262 0.17477186 0.17605257 0.22457056
000390 cd 06 2e 3e 5b 74 a3 bc c4 72 29 3e 10 bc ce bd
       0.16994782 -0.019952944 0.16547686 -0.10094464
0003a0 d7 21 fe 3b b0 9c 0e be c7 41 10 3e c3 70 1b 3e
       0.007755499 -0.13926959 0.14087592 0.15179734
0003b0 d6 2d 90 3e 4f cb 22 3e d5 37 22 3e e3 a9 2f bd
       0.2815997 0.15897869 0.1584161 -0.042886626
0003c0 65 ff 08 be ef 23 5d 3c dd a4 2a 3a f6 39 06 be
       -0.13378675 0.013497337 0.0006509552 -0.13108048
0003d0 f6 c6 a7 3d d5 d7 df 3c 27 14 d3 bd 51 50 43 be
       0.08192246 0.027324596 -0.10306578 -0.19073607
0003e0 cf a9 5f be 74 76 e3 bd 38 b3 1a bd 9d 3e fa bd
       -0.2184212 -0.111065775 -0.037768573 -0.12218974
0003f0 df 9b 1f be 36 f6 cb bd 5b 85 21 be de 38 ca 3d
       -0.15586804 -0.099590704 -0.15773527 0.09874128

conv1.bias f4 [16]
000000 49 28 3f 3e a6 4c 3d 3d 3d f7 eb 3d 3d f7 04 be
       0.18667711 0.046215676 0.11521766 -0.12984939
000010 f2 46 11 be 9c ff 92 bd 69 af c0 3d d3 58 50 bd
       -0.1418722 -0.0717766 0.09408457 -0.05086596
000020 12 e3 0f be ba d5 db bd 8c 65 06 bd 77 66 66 3c
       -0.14051464 -0.107341245 -0.032811686 0.014062515
000030 9d 08 c0 3c 33 ce 25 be c7 e6 8d bd c9 e0 81 3c
       0.023441607 -0.1619194 -0.06928783 0.015854256

conv2.weight f4 [32, 16, 7]
000000 0a 62 8c 3c 68 54 ca 3d db 22 88 bd 03 14 22 bb
       0.017136592 0.098793805 -0.06647273 -0.0024731166
000010 2c 71 bf bc ce 65 9d 3b 72 b6 f6 3b 8b 5e 96 be
       -0.023369394 0.004803396 0.0075290734 -0.29369006
000020 6f 4b 14 3c b9 b5 99 bd c0 8c c3 3b 82 c6 07 3d
       0.009051188 -0.07505364 0.0059677064 0.033148296
000030 92 b0 da 3d bc c1 37 bd 80 41 fe bc f1 97 c4 bd
       0.10678209 -0.044862494 -0.031037092 -0.09599293
000040 b6 13 07 3d f2 56 96 3d 56 df 67 bc aa ad 06 3e
       0.032977782 0.07340802 -0.0141523685 0.13152185
000050 b9 87 0c 3d 6e 10 9e bc 84 89 49 bd 71 9e c5 bd
       0.034309123 -0.019294944 -0.04920341 -0.09649361
000060 00 60 b4 bb bd 2f e4 bd 37 75 ce 3c d5 31 0a 3d
       -0.005504608 -0.11141918 0.025202377 0.03373893
000070 ef 0d 36 bd 7a 61 30 bd 30 8c 21 be bc d7 1a 3d
       -0.04444688 -0.04306171 -0.15776134 0.037803397
000080 e1 5d 68 3d bd 84 bc bb 3b 7b bc bd 7b 67 4d be
       0.056730155 -0.0057531283 -0.09203192 -0.20059006
000090 28 b1 a7 3d b1 f4 eb bd eb 9c cf 3d ae e8 0b be
       0.08188087 -0.115212806 0.101373516 -0.13662979
0000a0 29 00 1e 3d 10 0d 87 be a2 7a bd bd 65 ab 28 bd
       0.03857437 -0.26377153 -0.09251906 -0.04117908
0000b0 96 24 3e 3d 52 d0 8a 3b e6 9b 8d 3c 7e bb a9 bc
       0.04642161 0.0042362595 0.017286252 -0.020719286
0000c0 1f a1 c1 3d 23 6c 37 3c b8 49 0f 3d de 6c 94 3c
       0.094545595 0.011195215 0.034982413 0.018118318
0000d0 e9 1b f1 3d 0f a7 23 bb b5 f7 cb bd 7e aa ca bd
       0.117729016 -0.00249714 -0.09959356 -0.098958
0000e0 e0 12 6a bd 7a 84 e3 3d 4a 06 ae 3d a3 ba 11 3e
       -0.057146907 0.11109252 0.08497293 0.14231353
0000f0 e2 95 a8 bd 64 6e be bd 97 c8 c6 be 5e 19 9b 3c
       -0.08231713 -0.09298399 -0.38824913 0.018932994
000100 62 68 b2 3b fb 2e 11 bd ac e4 7a 3d 7e 77 94 3d
       0.0054445723 -0.035445195 0.061253235 0.07249354
000110 a1 e4 2b 3c 5a ab 89 bc 0f 85 47 3d 71 01 ab bd
       0.010491521 -0.01680534 0.04871088 -0.08349884
000120 1d 80 2f bd f5 b8 03 3e b8 21 a2 3c 50 31 8c bc
       -0.042846788 0.12863524 0.019791469 -0.017113358
000130 97 3d 04 bd c1 18 7a bd f2 2e 8f 3d 83 f3 8e bd
       -0.0322853 -0.061058763 0.06991376 -0.0698004
000140 5c 99 a4 bd 6f ed 20 be a3 98 1a be 41 aa 64 be
       -0.080370635 -0.15715574 -0.15097289 -0.22330572
000150 e8 36 bf 3d 1f fd 40 bc df 4f 9e bc 3a e3 0a 3d
       0.093366444 -0.011779099 -0.019325195 0.033908106
000160 75 b7 89 bd 7c e3 aa 3d 89 a9 5e 3d 71 26 bf bd
       -0.06724445 0.083441705 0.0543609 -0.09333504
000170 1c 22 a4 bd 91 4a d3 bb cd f6 e8 3c 13 db 72 be
       -0.08014318 -0.006448098 0.028437996 -0.23716383
000180 18 5e 44 bd b6 93 01 be 5f 9b 9a bc 44 37 01 3e
       -0.047941297 -0.12654004 -0.018872915 0.12618738
000190 1c 17 c3 3c 30 63 c7 bd dc d9 fc bd 45 6e 85 be
       0.02381473 -0.097357154 -0.12346241 -0.2606069
0001a0 14 17 97 3d d2 ec 3c be bc c9 b5 be 6b 48 22 be
       0.07377449 -0.18449715 -0.35505474 -0.15847938
0001b0 38 f6 3c 3d da 29 48 3e 8b b8 28 3e 90 bd ff 3d
       0.04613325 0.19547215 0.16476648 0.12487328
0001c0 a2 f7 b8 3d f7 83 28 bd fc 2a 00 bd 3a 77 b2 3c
       0.09031607 -0.041141476 -0.031290993 0.021785367
0001d0 47 2e a4 bd b7 4a 88 bd a3 af 80 3d ae 51 1e be
       -0.08016639 -0.06654876 0.062835 -0.15460846
0001e0 6a 94 bd ba 58 8a 90 bd e9 48 11 3d 43 12 14 be
       -0.0014463787 -0.07057637 0.035469923 -0.14460091
0001f0 04 c3 92 be c7 e7 08 be 90 e7 82 3d 41 38 3c 3d
       -0.2866441 -0.13369666 0.06391823 0.045952085
000200 84 e8 86 3d a3 a9 e9 3c b7 44 34 bd 1e 95 02 be
       0.065873176 0.028523272 -0.044010844 -0.12752196
000210 51 fa 56 bd 30 62 3f bd 81 92 c4 3c 10 90 a1 3a
       -0.052484814 -0.0467245 0.02399564 0.0012326259
000220 93 08 cc bd 18 b7 1c be 97 b3 d6 3c 2f 46 7c 3d
       -0.09962573 -0.1530422 0.026208682 0.06159037
000230 a1 a4 51 be 4b 24 d9 bc 01 44 be bd 06 03 ae 3d
       -0.20472957 -0.026506564 -0.092903145 0.084966704
000240 41 d7 e1 bd a7 14 05 3e 94 d7 18 3d 4a 16 c2 3c
       -0.110273845 0.1299616 0.037314966 0.023692269
000250 2b 21 46 3d 21 f2 34 bd 1a 40 d4 3c ef 1e 90 3c
       0.048371475 -0.044176225 0.025909472 0.017592875
000260 1e 0b fa 3c 25 03 4b be 50 39 07 3c 9e 80 23 3c
       0.03052288 -0.19825418 0.00825341 0.009979395
000270 6c b6 8e bd 8c 5e 7d bd 57 17 87 3d 7a 3c a1 3d
       -0.06968388 -0.061857745 0.065962486 0.07872863
000280 46 13 a6 3a 6a a4 98 3d 37 a3 a2 3d 2a e4 45 3c
       0.0012670539 0.074532345 0.07941287 0.012078324
000290 6f 7f 9a 3b 52 2c c6 3d fe d1 73 bd 2a 81 82 bc
       0.0047148983 0.09676422 -0.059526436 -0.01593073
0002a0 56 1a 86 3d 88 14 d8 3c 74 d4 1a ba 80 4e de bd
       0.06547992 0.026376978 -0.0005906292 -0.108548164
0002b0 1b 48 1b be 32 11 cf bd f4 2e 3d be ee ca 0f be
       -0.15164225 -0.101107016 -0.18474942 -0.14042255
0002c0 73 39 39 be bc 9c ef 3c e6 0d 7e 3d a1 3c 6a 3d
       -0.18088321 0.029249541 0.062024973 0.057186726
0002d0 b7 19 cc 3d b2 76 4e 3e 73 94 98 bd 63 b7 63 be
       0.09965842 0.20162466 -0.074501894 -0.22237925
0002e0 1a 26 95 3c f3 8f d9 3c b1 83 28 3d d7 b1 fc 3d
       0.018206645 0.026557898 0.041141216 0.12338608
0002f0 ea b4 2c 3e 76 8c 48 bd e6 73 6a 3d 10 86 20 3d
       0.16865888 -0.04896208 0.057239436 0.039190352
000300 67 5c 92 bd c2 a0 96 bc 65 a5 25 bd a9 e8 b4 ba
       -0.071465306 -0.018387202 -0.040440936 -0.0013802248
000310 5a 75 05 be 5b 50 d2 bd b6 64 5e be 21 57 31 bd
       -0.13033047 -0.10269233 -0.21718106 -0.043295983
000320 51 11 e0 3d b3 ba 4c 3e 61 26 35 3e 51 0e b8 bc
       0.10940803 0.19993095 0.17690422 -0.022467764
000330 5e e7 e7 bc 30 b1 bb ba fd ea 89 bd ad b0 92 3d
       -0.028308567 -0.0014319774 -0.067342736 0.071626045
000340 60 a7 f9 3b 83 43 52 3e 6d ff 63 3e c1 99 28 3e
       0.0076188296 0.20533566 0.22265406 0.16464902
000350 7e f5 19 be a8 31 bd bd af 2a bc 3c 6d 1b 0e bd
       -0.15035054 -0.09237987 0.022969572 -0.034694124
000360 96 ce 5e 3d 9e 80 b5 be 42 b7 78 be 99 0d 3e be
       0.054396234 -0.3544969 -0.24288657 -0.18559875
000370 2d 07 84 3d 16 70 b7 bb 3a 37 dd 3d e5 29 98 3d
       0.06446681 -0.0055980785 0.10801549 0.07429866
000380 36 de 79 3d a7 28 28 bd a5 11 be bb 88 9f c7 3d
       0.061002932 -0.041054394 -0.0058004432 0.09747225
000390 1c be 9a 3d 74 7a b1 3d 83 8d cc bc f5 c9 34 bd
       0.07555792 0.08665934 -0.024969822 -0.044137914
0003a0 95 e7 88 3d 6f 96 9b bc b0 88 16 3d 81 af 6b be
       0.06684796 -0.01899263 0.03675145 -0.23016168
0003b0 64 72 6a be ca 55 de bc 78 e5 29 be 8f 0c 3f be
       -0.22895199 -0.027140517 -0.16591442 -0.18657134
0003c0 c8 55 36 3d c4 0d 3b bd a3 b5 92 3d 51 1e f9 3d
       0.0445154 -0.045667425 0.07163551 0.121639855
0003d0 68 10 22 3e c9 47 89 bd 52 6a fc bd 62 c7 15 be
       0.15826571 -0.06703145 -0.123249665 -0.1462684
0003e0 ab 99 cd 3b 33 95 cd bd 3c 83 02 3e e4 4b 23 3d
       0.006274422 -0.10038223 0.12745374 0.039867297
0003f0 df db 9f 3d bc cb b2 bd 86 50 b1 bd 36 cd 17 be
       0.07805609 -0.087302655 -0.08657937 -0.14824376

conv2.bias f4 [32]
000000 1a 7d b9 3d 9c 89 1a bb 08 22 c2 bd 7f f1 98 3c
       0.09057064 -0.0023580557 -0.09479147 0.018669842
000010 84 17 88 3d 6b ed 81 bc a6 a7 15 3d ee b5 c0 bd
       0.0664511 -0.01586028 0.036536835 -0.094097
000020 f3 d5 25 bd a7 46 85 3d 00 23 92 bc 56 33 77 bd
       -0.04048724 0.065076165 -0.017838955 -0.060351692
000030 5d 58 24 39 f8 54 95 ba 9f ab 3e bd ae 63 ba bd
       0.00015673177 -0.001139312 -0.04655039 -0.09101044
000040 c1 12 89 bd 4e f7 dd bd 19 18 af bc dd 78 16 bd
       -0.0669303 -0.10838185 -0.021373795 -0.036736358
000050 5e a7 f9 3d d5 58 87 3c fc 33 14 3d dc 26 d9 3c
       0.12190126 0.01652185 0.03618239 0.026507787
000060 c0 94 eb 3b 1c 1c 16 3c 36 52 fd 3b af fe 1b bc
       0.0071893632 0.009161975 0.0077307476 -0.0095211705
000070 2b 3f f1 3b 17 2e e1 bc da fd 7a 3d 61 5c 96 bd
       0.0073622665 -0.027487798 0.061277248 -0.07341839

conv3.weight f4 [64, 32, 5]
000000 ee 91 8c bd d0 a8 f4 bd ff 28 aa 3c a1 7c f4 3c
       -0.068637714 -0.11946261 0.020771502 0.029844584
000010 06 c7 95 3d e2 b1 80 bd 37 17 00 be f3 e2 9e bd
       0.07313351 -0.062839285 -0.12508856 -0.07758131
000020 bc 51 ed 3d 57 8d 38 3e a4 e9 8f 3d bc 43 c0 3d
       0.11587855 0.18022667 0.07026985 0.09387919
000030 3e bb b8 bd ac f0 36 bd 14 d2 96 bd 12 ea d1 bd
       -0.090200886 -0.044663116 -0.07364288 -0.102497235
000040 7a 3d a9 3d 34 9f 9f 3d e0 2d 27 bc d9 ab 17 be
       0.08263679 0.077940375 -0.010203809 -0.14811648
000050 5e f6 7c 3e 0b c1 aa bc 10 b4 83 be 56 37 c7 3c
       0.24703357 -0.020844003 -0.25723314 0.024318378
000060 d0 63 37 be 38 a2 35 bd 68 c5 8a 3d 42 f9 f7 bd
       -0.17909169 -0.044344157 0.067759335 -0.12108089
000070 bf 81 30 bb cd cb 19 bd a5 3a fa bd 59 24 9d 3b
       -0.0026932803 -0.037547875 -0.12218217 0.0047955927
000080 96 e6 2c bd af 76 45 3d 1c 08 4f be b0 25 08 be
       -0.04221209 0.04820889 -0.20217937 -0.13295627
000090 89 77 d8 bd 76 37 0e bd 7e 3f d2 bd a0 28 b5 3d
       -0.105696745 -0.03472086 -0.102660164 0.08845639
0000a0 66 73 c3 bd 91 03 00 be 83 75 b0 bd bf 1b d5 bd
       -0.09543495 -0.1250136 -0.086161636 -0.10405683
0000b0 5f 5c 04 bd d4 a4 45 3d e0 44 2d 3d 4d 67 17 3d
       -0.032314654 0.048252895 0.042302012 0.03696375
0000c0 c0 ad 15 bd 6b 65 89 bd 8e e4 b1 bd e3 97 80 bd
       -0.036542654 -0.06708797 -0.086861715 -0.0627897
0000d0 8c 86 ed 3d b1 88 49 be f5 85 a7 3d d0 8a e6 3c
       0.115979284 -0.1968105 0.08179847 0.028142363
0000e0 dc 44 84 3d de ca 8f 3c c5 ab b5 bc 5e 5f 09 3e
       0.064584464 0.01755279 -0.022176633 0.13415286
0000f0 04 2f 4a 3d 07 d9 8d 3d 55 2a 1f bd 05 28 99 3d
       0.049361244 0.0692616 -0.03885873 0.07478336
000100 b6 c8 4c be b5 d4 9f bd 28 63 54 be 36 e3 0a 3e
       -0.1999844 -0.078042425 -0.2074095 0.13563237
000110 75 9f 9b bc 46 4a 80 3e 68 fb 03 bd ba 8c 4c bd
       -0.018996933 0.25056666 -0.03222218 -0.049938895
000120 5b b5 13 bd d8 c5 d6 bb 0b 8c a0 bc e3 2e 3a 3c
       -0.036061626 -0.0065543465 -0.019598028 0.011363718
000130 fc dc 95 bd 22 c5 0b be 9b 90 9b 3d 7b 36 47 3d
       -0.0731754 -0.13649419 0.07595941 0.04863594
000140 dc a0 20 bc 7d a0 8b 3c c1 96 d6 bd 21 77 fd bc
       -0.009803977 0.0170443 -0.10477973 -0.030940594
000150 36 f2 63 3d fa 8b d6 bd 18 cf 11 bc 31 6b bc bd
       0.055650912 -0.10475917 -0.008899473 -0.09200133
000160 c5 80 7f bd 93 a9 21 3e 9b 8a 15 3d ca a6 15 3e
       -0.062378664 0.15787344 0.036509138 0.14614406
000170 43 63 3c be 47 57 c4 bd 1a 8a ce bc ac 29 74 3d
       -0.1839724 -0.09586959 -0.025212336 0.059610054
000180 5a 97 9f 3b 50 bf 8b bd a9 6e 19 bd f4 18 03 be
       0.0048703374 -0.06823599 -0.03745905 -0.12802488
000190 1c e4 ed bc 03 0c 08 3e 16 8a 67 be 2c eb f5 bc
       -0.029039435 0.13285832 -0.2261127 -0.030019365
0001a0 8d fb 9a be 6c 2d ab 3c 14 da b1 bc 8d b6 38 bd
       -0.30270043 0.020895682 -0.021710433 -0.04509597
0001b0 5e 89 03 3b 8b e2 11 be bc 6b c2 bc 4f de 95 ba
       0.002007089 -0.14246576 -0.023733012 -0.0011434051
0001c0 94 78 86 3d 2c 10 05 be ce 2f 12 3e 48 c6 4a 3d
       0.06565967 -0.1299445 0.14276049 0.049505502
0001d0 31 91 f2 3d 86 c5 0b 3e 18 c6 72 3d 89 7c 8c bc
       0.11844099 0.13649568 0.05927095 -0.017149227
0001e0 da ac 54 3e 78 58 1f 3b 39 8a cb 3c cd 06 e2 bd
       0.20769063 0.0024314206 0.024846183 -0.110364534
0001f0 ce 9e 61 3d a3 90 42 3d a2 26 87 3e 46 77 f0 bd
       0.05508309 0.047501218 0.26396662 -0.117414996
000200 bf cb 51 3e f0 08 aa bc 21 11 9f 3c 84 ae 66 bc
       0.20487879 -0.020756215 0.019417347 -0.014079694
000210 34 07 48 3d ea 68 85 bd 3d 21 cb bc 21 91 bf 3c
       0.048834994 -0.065141514 -0.024796123 0.023384633
000220 11 de e9 3d cd df 9d bc a1 e2 06 be 89 fb 0c bd
       0.11419309 -0.019271756 -0.1317239 -0.03441957
000230 75 93 90 3c f3 f0 5a be c5 d2 31 3b a9 36 60 3d
       0.017648438 -0.21380977 0.0027133685 0.054739628
000240 65 b0 01 3e 08 28 78 3a 9b 8a 90 3c ef e3 b9 bd
       0.12664945 0.00094664143 0.017644217 -0.09076678
000250 eb 7b 19 be 79 a2 de bd da 05 a5 3c bb 31 57 3d
       -0.14988677 -0.10870833 0.020144392 0.05253766
000260 ba a7 ab 3d 58 40 98 bd 4d c6 75 be 80 e5 4b 3c
       0.08381601 -0.074341476 -0.24001427 0.012444854
000270 49 eb 88 bd 6a d2 c6 bd 35 43 85 bd a5 55 3e be
       -0.06685502 -0.09708102 -0.06506959 -0.18587358
000280 10 f9 fd 3d 10 84 93 bb 19 56 b4 bd bc 0d f5 3b
       0.124010205 -0.004501827 -0.08805484 0.007478444
000290 d1 4f 9f 3c 92 df b5 3d 9a db b7 3d 05 b2 60 bc
       0.01944724 0.08880533 0.089774325 -0.013714318
0002a0 c4 ee 94 bc df df e2 3d aa 62 04 3d 87 0a a4 bb
       -0.018180259 0.11077856 0.032320656 -0.005006138
0002b0 6a 8a cc bc 1f e1 83 be 45 4d 89 be 04 e1 81 bd
       -0.024968345 -0.2575769 -0.26816764 -0.063417464
0002c0 9e 3b be 3d e9 db 14 bd b1 f8 ab bd 8b 5b 05 3e
       0.09288715 -0.036342535 -0.083970435 0.13023202
0002d0 33 73 dc bd 16 f6 0f be a4 09 1c 3d 5c b6 e9 3c
       -0.1076416 -0.14058718 0.03809513 0.028529339
0002e0 13 b9 7b 3d 15 58 27 be c8 8d 83 bd e7 93 f7 3d
       0.061455797 -0.16342194 -0.06423527 0.12088757
0002f0 41 3a 8a 3d 97 e8 0f 3e 10 7d e7 bd 76 ff 5d be
       0.06749392 0.1405357 -0.11303151 -0.21679482
000300 9d d6 96 bd 90 ea a5 bc 49 3a 81 3a 8f ad d9 bc
       -0.07365153 -0.02025345 0.0009859289 -0.026572017
000310 60 6b 23 be 49 3e cc bd 17 36 4d 3d 03 42 f4 3d
       -0.15958929 -0.099728175 0.050100412 0.11926653
000320 f1 f9 56 3d f7 48 4b bd 03 40 36 be 4d ab 2c 3c
       0.052484456 -0.04963013 -0.17797856 0.010538888
000330 48 2a b4 bd 09 0e 54 be 81 c4 a7 bd 12 cd 9f bd
       -0.08797127 -0.20708479 -0.08191777 -0.07802786
000340 f3 85 06 3e 6a ad 3c 3e f3 68 2c bd 10 8e 31 bd
       0.13137035 0.18425527 -0.042092275 -0.043348372
000350 2f d5 74 bc f3 f5 37 be aa 94 de bd 87 62 97 3d
       -0.014943405 -0.17964916 -0.10868199 0.073918395
000360 f2 84 a7 3b 7d 2f 88 bd 91 70 8e bd a0 87 0f bd
       0.005112284 -0.06649683 -0.06955064 -0.03504145
000370 11 53 3c 3b 08 8e 77 3d 90 0b dc 3d 31 55 ab 3d
       0.0028736035 0.060438186 0.10744393 0.08365858
000380 5d 75 8a 3d 08 8a 29 3d 42 65 52 bd 89 2e b8 bd
       0.067606665 0.041391402 -0.0513661 -0.08993251
000390 22 58 92 3c 62 fc a0 3c d0 c7 2f be 63 80 1c be
       0.01786429 0.019651596 -0.17166066 -0.1528335
0003a0 9b 3c cd bd ff 2b 3d bd f4 63 87 bc 49 1f 3b 3e
       -0.10021325 -0.046184536 -0.016527154 0.18273653
0003b0 93 24 6f 3d 8a 1c 49 bd 45 c3 1c be b5 4e d7 bd
       0.05838449 -0.049099483 -0.15308864 -0.10513059
0003c0 21 f7 2e 3d b0 2c 94 3b 16 4e 23 3d 47 89 55 bd
       0.04271615 0.0045219287 0.03986939 -0.05213287
0003d0 0d cf 48 3d 54 fa 2f 3c 29 ab bb bd 16 5a a6 3d
       0.049025584 0.010740835 -0.091635056 0.08122651
0003e0 1b fc 18 bd e1 01 ab 3c 7d ee 04 3d af d5 b1 3d
       -0.0373498 0.02087492 0.032454003 0.08683335
0003f0 40 5f e2 bc 07 2e 58 3d 6d 18 6c 3e 95 44 f8 3d
       -0.02763331 0.05277827 0.23056193 0.12122456

conv3.bias f4 [64]
000000 59 df 48 3b a7 56 16 be 19 64 68 3d b8 83 40 3c
       0.0030650704 -0.14681493 0.056736086 0.011750154
000010 71 a1 90 bd 30 5a 93 3d 0e 0a fa 3b d5 56 f4 3c
       -0.070620425 0.07194936 0.007630593 0.029826561
000020 fc 6f 45 3d e0 de b6 bd 24 2d 78 3c 62 b3 be bd
       0.0482025 -0.08929229 0.015147481 -0.09311558
000030 b9 06 56 3d 91 aa 1f bd 5a 00 b4 bd a2 52 79 bd
       0.052252505 -0.038981024 -0.087891296 -0.06086982
000040 33 3f 4c 3d d7 b1 98 bd 47 41 86 3d 5d 92 4c 3c
       0.04986496 -0.07455795 0.065554194 0.012486068
000050 b1 6d a8 3c 2a e2 4c 3d 94 25 13 bd 2f 2c 49 3d
       0.020560117 0.050020374 -0.03592451 0.049114402
000060 cb b3 13 bd c7 a7 18 bd 10 21 c0 bc cf e6 61 bd
       -0.036060136 -0.03726938 -0.023453265 -0.055151757
000070 c1 10 10 be 20 f0 03 bd 2a 86 7c bd 96 2c 0e 3c
       -0.14068891 -0.032211423 -0.061651386 0.008677622
000080 0a fe ad 3d 66 8f 6a 3d 42 b2 79 bd 68 db 9b bd
       0.0849572 0.05726566 -0.060961016 -0.07610208
000090 75 f1 9d 3b 2b a2 73 3c 30 ff 13 3d d4 b9 fc 3c
       0.0048200437 0.014870207 0.036132038 0.030850329
0000a0 2c 14 0d 3d 2e 2c 2d 3d 9e f2 26 bc 7f e9 8e 3c
       0.034443066 0.04227846 -0.01018968 0.017445324
0000b0 2a 73 0d bd 17 b6 07 b9 c5 18 45 3d 57 f1 17 bd
       -0.034533657 -0.00012942437 0.048119325 -0.037095394
0000c0 e7 c8 7a 3d 3e ba 81 3d 4d e5 f8 bc 70 25 10 3d
       0.06122675 0.06334351 -0.030382777 0.035191953
0000d0 6b 23 99 bc fb bd d9 bc 96 af 79 bd 49 97 ac 3c
       -0.018693646 -0.026579848 -0.060958467 0.021068232
0000e0 cf 18 06 3d f8 f8 76 bc b9 90 55 3d f9 f2 82 3d
       0.032738503 -0.015074007 0.05213997 0.063939996
0000f0 5b 25 ab bd 8d b4 00 bd f4 f6 f2 3b 79 fe c9 3b
       -0.08356734 -0.031422187 0.007414693 0.0061643687

conv4.weight f4 [128, 64, 5]
000000 74 17 e7 bd 2c 7f 29 be 9e 2b 97 bd 49 c1 23 be
       -0.1128377 -0.16552418 -0.07381366 -0.15991701
000010 fc 04 2c be 92 22 45 3d bb 84 21 3e 4e 09 76 3d
       -0.16798776 0.048128672 0.15773289 0.060067467
000020 8b d1 92 3d 65 49 95 3d 27 c3 9d 3b 27 1b 8e 3d
       0.071688734 0.072893895 0.0048145237 0.06938773
000030 bd 49 e5 bc c5 0b 18 3c db 4e 68 bd 3f b1 54 3d
       -0.027989263 0.00928015 -0.056715827 0.051926848
000040 7b ca 10 3d 70 b2 dc 3d 37 58 d8 3d 8a 84 d1 3d
       0.03534935 0.10776222 0.10563701 0.10230358
000050 41 92 e2 3b 20 57 1c bd 35 a4 08 bd 13 03 43 be
       0.0069144075 -0.038169026 -0.033359725 -0.19044141
000060 7e 00 fd bd 83 39 6b bd e5 c8 b6 3c 40 e7 e8 3c
       -0.123536095 -0.057427894 0.02231259 0.028430581
000070 e9 10 47 3d 27 2b c5 bd 8f 94 20 3e 60 5d 8d 3d
       0.04860011 -0.09627371 0.1568167 0.069025755
000080 56 9b d9 3d 48 2d 89 3d 20 19 02 3e 6b 9c c1 3d
       0.10625331 0.0669809 0.12704897 0.094536625
000090 e7 3c 99 3d 68 97 37 3d a4 7c ee bc 1b 74 1f bd
       0.07482319 0.044822127 -0.029112168 -0.038929086
0000a0 ff 78 ba bc 72 64 77 3d a1 28 02 3d 46 47 46 bd
       -0.022762774 0.060398526 0.031777028 -0.048407815
0000b0 cc 60 85 bd 56 a9 b8 bc 77 96 c6 bd d9 61 22 bd
       -0.06512603 -0.022541683 -0.09696668 -0.039644096
0000c0 57 dd f9 bc f1 db 9f bc b6 88 26 3e e9 f5 c7 3d
       -0.03050105 -0.019514056 0.16263089 0.097637005
0000d0 90 6d 57 3e ba 65 53 3e 1f d9 d2 3d a5 c0 27 3e
       0.21037889 0.20644274 0.10295319 0.16382082
0000e0 f4 ae b7 3d f7 99 6f 3d 07 69 1c 3e b5 78 d1 3d
       0.089689165 0.05849644 0.1527444 0.10228101
0000f0 de ea 5e 3d ee 5d 85 bd 2c 5f 86 bc 36 64 d5 bc
       0.054423206 -0.06512056 -0.016402803 -0.02604876
000100 3f 16 0c 3d 81 98 12 be 07 ab 3a bd ed e9 0f 3b
       0.034200903 -0.14315988 -0.04557326 0.00219595
000110 11 19 76 bc 9e 7c b0 bd e3 ef b6 bd c7 7f a6 bc
       -0.015020625 -0.08617519 -0.089324735 -0.0203246
000120 80 88 6c 3b b7 04 b5 bd 3b 05 74 3c 00 59 f4 bc
       0.0036092103 -0.0883879 0.014893825 -0.029827595
000130 69 3c 53 bd 73 7f 31 bd 46 7a a1 bd 42 0a 3b 3c
       -0.051571283 -0.043334436 -0.0788465 0.01141602
000140 06 5f 8e bd db 3f e1 bd ed 3f e5 bc c9 0c c9 bd
       -0.06951718 -0.109985076 -0.027984584 -0.09816892
000150 5c 7d 95 bd 99 4f e8 bd dc 28 01 be 28 c2 d8 bd
       -0.07299301 -0.11343307 -0.12613243 -0.10583907
000160 e2 83 e4 bd eb e1 02 bc 58 41 05 3e 90 a7 f9 3d
       -0.11157967 -0.007988433 0.13013208 0.12190163
000170 d0 6a 14 3d 54 c8 e2 3d cf bb 65 3d db 03 32 3d
       0.036234677 0.11073366 0.05608731 0.043460708
000180 b0 5d 4f 3d 1d 37 fa 3c 46 e1 f9 3c 55 4b 8f 3b
       0.050626457 0.030543858 0.030502927 0.004372994
000190 ad 74 04 bc 5c dc 9e bd 9e b9 c5 bd 10 82 e4 bd
       -0.008084458 -0.07756874 -0.09654544 -0.1115762
0001a0 14 51 1b be 32 1a d5 bb 73 29 13 bd 77 00 9f bd
       -0.15167648 -0.006503367 -0.0359282 -0.077637605
0001b0 ff b0 2b bc 66 e7 29 3d 8d 97 50 3d 13 eb a5 3d
       -0.010479211 0.041480444 0.05092578 0.081014775
0001c0 03 98 41 3d 48 9f 6e 3d a9 4f e8 3d d6 05 36 3d
       0.04726411 0.05825737 0.11343319 0.04443916
0001d0 97 29 90 3c 67 1c d8 bb b1 cf a3 3c 89 72 ec bd
       0.017597957 -0.0065951827 0.019996496 -0.11545283
0001e0 da 27 4e bd 16 80 44 bd c7 3e 31 3d f2 46 b6 bc
       -0.050330974 -0.047973715 0.04327276 -0.022250626
0001f0 95 09 23 bc a5 35 fb 3d 4f 12 33 3e 6d 3a 9e 3d
       -0.009951015 0.12266091 0.17487453 0.077259876
000200 be fc e5 3d 74 d2 c2 3d ae 02 f7 3c 5f df ad 3d
       0.11229847 0.09512797 0.030152645 0.0848987
000210 30 b2 c3 3d fa 1a 18 3e b4 af fb 3c 54 fc 2a 3e
       0.09555471 0.1485404 0.03072343 0.16697818
000220 76 eb cc 3d 96 7b ab 3d db e0 c7 3d 88 d5 ed 3d
       0.10005848 0.083731815 0.09759685 0.116129935
000230 7a 8c 34 3e 06 97 a1 3d 59 3c d3 3d a4 ee ae 3d
       0.17631713 0.078901336 0.10314245 0.08541611
000240 53 96 e2 3c f4 ce af 3d a5 14 cb 3c df 12 f0 3c
       0.02765957 0.08584395 0.024790118 0.029305873
000250 ea 48 8f bd 1e 27 96 bd ee 8d dc bd 5a 89 4a be
       -0.06996329 -0.0733168 -0.107692584 -0.19778958
000260 08 27 dc bd 60 f8 02 be bb 9f c1 bd 84 ca c2 bb
       -0.10749632 -0.1279006 -0.09454294 -0.005944552
000270 ef b3 a5 bc 53 13 80 bd 89 99 1f 3d b7 d3 1a 3e
       -0.0202274 -0.06253686 0.038964782 0.15119825
000280 20 77 af bb e1 d7 c0 3b db 56 b2 bd ff 1d 2f bd
       -0.005354777 0.00588511 -0.087079726 -0.042753216
000290 9d 33 d6 bd 26 54 3a 3e 1d e8 1a be cc 62 8a bd
       -0.10459063 0.18196163 -0.15127607 -0.06757125
0002a0 b7 3f 83 bd b5 36 b2 3d a1 40 70 3d 89 fb af 3d
       -0.06408637 0.08701841 0.058655385 0.085928984
0002b0 a1 2d ce 3c 56 9b 1e bc 3e 74 e7 3d 97 6a 3e 3e
       0.025168242 -0.00968059 0.11301468 0.18595348
0002c0 65 12 6e 3d f6 30 02 bc d0 6a 15 be b6 3e 9e 3d
       0.05812301 -0.0079462435 -0.14591527 0.07726805
0002d0 1b 2a 11 bd 4b 9d f1 bc cd 43 56 bd 08 da e6 bd
       -0.035440546 -0.029493948 -0.052310754 -0.11272055
0002e0 46 49 a7 bd 4e fc 66 be 57 18 54 be 8c ad 0a be
       -0.08168273 -0.22557184 -0.2071241 -0.13542765
0002f0 b3 ed 94 be b0 5d fc bd dd ef 10 be 38 38 99 bd
       -0.290876 -0.12322557 -0.14154 -0.07481426
000300 84 7f a2 3d bf c9 67 3d 60 5e 30 bd 06 3c 01 be
       0.07934478 0.056588884 -0.043058753 -0.12620553
000310 6e 8a 20 bd 20 ea 04 be c3 10 88 bd 29 71 7c bd
       -0.039194517 -0.12979937 -0.06643822 -0.061631355
000320 54 76 6f bd 06 53 3c bc 70 1f c7 bd c2 7d 90 bd
       -0.058462456 -0.011494404 -0.09722793 -0.070552364
000330 68 d7 df bc e7 a6 d3 3d 69 ff 17 3e 70 c4 10 3d
       -0.027324393 0.103345685 0.14843525 0.035343587
000340 78 7c aa 3d 30 65 a5 3d c5 6e 93 be d2 95 b9 bd
       0.08324522 0.080759406 -0.28795448 -0.09061779
000350 c6 09 26 3d 55 9e 3b 3d 8b 5d a3 bd 8f 76 38 3e
       0.040536664 0.045805294 -0.07976826 0.18013977
000360 c4 cc 4a bd f2 77 c6 bd 89 b7 00 bd 5f f8 c1 3d
       -0.049511686 -0.096908465 -0.031425033 0.09471201
000370 e7 47 8d 3d f7 3c b4 bc a2 a1 1e 3d 67 ff 8b bb
       0.0689848 -0.022001727 0.038728364 -0.0042723897
000380 ef 20 37 3c 0f 1e 93 bd 05 9c e9 bd 8c ef 0f bd
       0.011177286 -0.071834676 -0.114067115 -0.03514056
000390 4e 1c 17 be 92 d2 91 bd cc 5b 0f be be 93 c4 bd
       -0.14756891 -0.07120241 -0.13999861 -0.09598492
0003a0 e2 1e 7d 3d 7a 60 0c 3d ea b7 0b bd 0c 09 46 bd
       0.06179703 0.034271695 -0.03411094 -0.04834847
0003b0 09 ae 1b bc 40 e9 4f bb 46 06 ce 3d 3c 19 a4 3d
       -0.009501942 -0.0031724721 0.1005979 0.080126256
0003c0 9b 56 c6 3d ef cb 20 bd c9 7e cc bd ce 69 f9 bc
       0.096844874 -0.039256986 -0.0998512 -0.03044596
0003d0 3a 05 31 3e 9b bf dc 3d 5f 37 10 3e f2 e7 e5 3d
       0.1728715 0.10778733 0.14083622 0.11225881
0003e0 c5 37 00 3e 53 d1 13 3e 88 6a 1c be 96 c6 8b bd
       0.12521274 0.1443532 -0.15275013 -0.06824987
0003f0 76 00 99 bc ea 32 66 3d 39 ea 80 bd 06 4e eb bd
       -0.018676978 0.0562009 -0.062946744 -0.11489491

conv4.bias f4 [128]
000000 8f d1 0f 3d 03 d1 47 3b 3f 1c a1 3b f2 4c 21 3d
       0.03511196 0.003048957 0.0049166973 0.03938002
000010 e9 8d 4d 3d 93 1d 09 bd 2a 52 3a 3d b7 ab a5 3c
       0.050184164 -0.03347547 0.045488514 0.020223482
000020 6c 4a b6 3c e8 e1 a9 bb d4 9f 06 bd 8f 9a 95 bc
       0.022252284 -0.005184401 -0.032867268 -0.018262176
000030 a5 68 5e 3d 73 28 1a bc 59 a4 92 bb e9 8d ce 3c
       0.054299016 -0.009409058 -0.004475158 0.025214152
000040 79 36 78 3d 0c 17 46 bd 75 85 c9 3b f0 00 68 3d
       0.060598824 -0.048361823 0.0061499425 0.05664152
000050 87 b9 1b 3d 25 77 53 3d 9f a3 71 bc 54 f9 9d bc
       0.03801873 0.051627297 -0.014748483 -0.019283928
000060 8b f3 30 3d b6 d5 37 3c c6 29 0a bc 93 21 45 bd
       0.04320101 0.011220386 -0.008432811 -0.048127722
000070 e6 54 5c 3d da 00 69 bc 14 98 55 3c 47 b3 bf bc
       0.053791903 -0.014221394 0.0130367465 -0.023400916
000080 44 d4 f9 3c 2a fd 18 bd a5 eb 16 3d 22 5b 87 3c
       0.030496724 -0.03735081 0.036845822 0.016522948
000090 63 ff 16 bd 00 7a 5b bc e7 ac 58 bc bb 67 27 bc
       -0.03686465 -0.013395786 -0.013224817 -0.010217602
0000a0 c2 d0 14 3d e9 b7 48 3c a9 ea 6b 3d 13 62 4c bd
       0.0363319 0.012250879 0.057596836 -0.04989822
0000b0 70 49 82 3c fb 05 08 bd 04 60 5d 3d 76 b5 de 3c
       0.015904158 -0.03320883 0.054046646 0.027186137
0000c0 a2 9a 2d 3c ec 31 56 bc aa 7d 37 3c cd 76 39 bc
       0.010595949 -0.013073426 0.011199394 -0.011319828
0000d0 67 4b e3 bc fc 7b 2b 3c ac fb e6 bb 91 c7 c5 3c
       -0.027745916 0.010466572 -0.0070490446 0.024143012
0000e0 d6 b2 63 3d 76 0d 46 3d d5 a2 20 bd e1 67 11 3d
       0.055590473 0.04835268 -0.03921779 0.035499457
0000f0 53 fc e4 3c 60 95 07 bd 13 20 5e 3d 61 94 3a bd
       0.027952349 -0.03310144 0.054229807 -0.04555166
000100 9d f1 cb bb 2c df a6 3c 1b 60 03 bd de 9e 3c bc
       -0.006223871 0.020370089 -0.032074075 -0.011512486
000110 19 11 2e bd fc 03 11 bd bb f5 7e 3c 2a 7a 98 3c
       -0.042496774 -0.03540419 0.015561516 0.01861294
000120 77 a5 55 3b 9e 2b 89 3d 29 58 86 bc 5c 6d 9b 3b
       0.0032599845 0.066977724 -0.01639946 0.0047432613
000130 cf 9d 82 bc 3a bf c4 bc af b4 9f 3c fe 8e d3 3c
       -0.01594439 -0.024016965 0.019495336 0.02582502
000140 e6 be b0 bc 8c 51 cb 3c cf c4 6d 3d 31 86 8a bc
       -0.021575402 0.024819158 0.05804902 -0.01690969
000150 65 c2 d3 3c 03 d3 c9 bc a1 8b 2a 3c e7 7b c2 3c
       0.02584953 -0.024636751 0.010409267 0.023740722
000160 6a 96 ef 3c dd 7f 56 bb 0c fd 37 bd e4 1c 2f 3c
       0.029246528 -0.003273002 -0.04491906 0.01068804
000170 65 e4 fd 3b 89 52 d4 bc 89 6d fa 3c e5 90 d6 bc
       0.007748174 -0.025918262 0.030569809 -0.026192138
000180 25 a3 13 3d 55 9a 35 3d 63 60 3e 3c e2 c9 49 3d
       0.03604426 0.044336636 0.01161966 0.049264796
000190 7b e3 26 bd fd 32 84 3c 00 ac 54 bd fa 20 39 bd
       -0.040744286 0.016137594 -0.051921844 -0.045197465
0001a0 9f cb 54 3c 38 16 d0 3c c6 f9 1a bd a5 88 fc bc
       0.012988 0.02540122 -0.03783586 -0.030826876
0001b0 e0 d4 d1 bb 1d 40 2f 3c 14 0a 13 3a d5 df 09 bd
       -0.0064035505 0.010696438 0.0005609107 -0.03366073
0001c0 56 a2 83 3c d7 51 79 bc e6 09 e4 3c 2c fd 22 3d
       0.016068619 -0.015217266 0.027836751 0.039792225
0001d0 5e 9b 1f bd 0d c8 d7 bb 54 4e 49 3d a3 be 29 bd
       -0.03896653 -0.006585127 0.049146965 -0.04144157
0001e0 0b 4b 02 bd fd b4 2e bd 64 37 85 3c 59 72 aa bb
       -0.031809848 -0.042653073 0.016261764 -0.0052016196
0001f0 c2 16 b3 3b ce cc ed bc 02 98 fc 3c 95 9f 31 3c
       0.0054653594 -0.029028323 0.030834202 0.01084127

bn1.weight f4 [16]
000000 64 ed 34 3f aa bf 9f 3f a9 28 8c 3f 7e 55 25 3f
       0.7067473 1.2480366 1.0949908 0.64583576
000010 d7 f4 3a 3f d0 50 83 3f cf ed 3c 3f b0 e4 36 3f
       0.73029846 1.0259037 0.7380037 0.714427
000020 8d 8f 60 3f e1 ef 89 3f 46 92 8a 3f 90 75 78 3f
       0.8771904 1.077633 1.0825889 0.97054386
000030 1b 14 80 3f 4f ff 5b 3f 3c c2 73 3f b7 61 8a 3f
       1.0006136 0.85936445 0.95218253 1.081107

bn1.bias f4 [16]
000000 37 1c 3b bd d4 03 9f 3e 12 5f cb 3e 4c 53 ac be
       -0.045681205 0.31057608 0.3972097 -0.336573
000010 ea c6 25 be 51 fc 41 3e 01 21 07 3e 07 80 b0 be
       -0.16189161 0.18943907 0.13196184 -0.34472677
000020 6d d7 a7 3e 79 07 80 3e cd 0c ef 3e 98 2f aa 3e
       0.32781544 0.250057 0.46689454 0.33239436
000030 d6 e7 03 3f 35 d7 82 bd ce 1e ce 3e e0 3b a5 3e
       0.5152563 -0.06388704 0.40257877 0.32272243

bn1.running_mean f4 [16]
000000 5e c6 41 3e f2 f6 3d 3d e9 1e f5 3d 33 fe 01 be
       0.18923327 0.046378084 0.11968786 -0.12694626
000010 d0 98 12 be e4 70 91 bd 65 18 c0 3d 04 7f 48 bd
       -0.14316106 -0.0710161 0.09379653 -0.048949257
000020 a8 2c 0f be 10 56 df bd b5 8e 15 bd 01 3d 5f 3c
       -0.13981879 -0.10905087 -0.03651305 0.013625384
000030 fa 64 c1 3c f0 c4 24 be 91 6e 8d bd 53 05 8d 3c
       0.02360772 -0.1609075 -0.069058545 0.017214453

bn1.running_var f4 [16]
000000 df 4f da 3e ee 7c ff 3e 8f a9 04 3f b9 73 92 3f
       0.42639062 0.499 0.51821226 1.1441566
000010 15 fd 99 3e 99 81 07 3e 55 30 ff 3e ba c4 2a 40
       0.300759 0.13233031 0.49841562 2.6682572
000020 d5 f4 05 3e 60 37 08 3f 10 45 84 3e 7b e8 a8 3e
       0.13081677 0.53209496 0.2583394 0.3298987
000030 61 45 d1 3e bd 92 12 3e 04 2a 14 3e c1 f1 33 3e
       0.40873244 0.14313789 0.14469153 0.1757269

bn2.weight f4 [32]
000000 89 91 70 3f 70 34 84 3f bd e9 67 3f d1 6d a7 3f
       0.9397207 1.0328503 0.9059103 1.3080388
000010 7f c8 8a 3f d7 9e 80 3f 40 92 65 3f a7 58 7c 3f
       1.0842437 1.0048474 0.89676285 0.9857277
000020 d1 cc 52 3f 59 73 6f 3f f0 b9 8b 3f 76 3e 46 3f
       0.82343775 0.9353538 1.0916119 0.7743906
000030 cc 9b 8d 3f 9a c3 8b 3f 4c 01 7f 3f c0 a4 8c 3f
       1.106317 1.0919068 0.99611354 1.0987778
000040 7a 6a 45 3f d3 5d 8e 3f 0b ab 7c 3f 9c a8 6d 3f
       0.77115595 1.1122383 0.9869849 0.928354
000050 7c 04 91 3f ba 62 97 3f 32 fd 82 3f b3 cd 72 3f
       1.1329494 1.1827004 1.0233519 0.9484512
000060 28 b9 88 3f 0f d3 94 3f 61 e7 72 3f 62 a6 53 3f
       1.0681505 1.162691 0.94884306 0.82675755
000070 75 0e 85 3f 09 2b 7c 3f 25 09 7c 3f 50 0a 68 3f
       1.0395037 0.98503166 0.98451453 0.90640736

bn2.bias f4 [32]
000000 cb 13 9c bd 46 8f 49 bd ab d8 15 3d 94 03 17 3d
       -0.07620963 -0.0492089 0.036583584 0.036868647
000010 2d 93 31 be 14 dd 28 bc 6c 99 95 bd 45 37 ed bd
       -0.173413 -0.010306615 -0.073046535 -0.115828075
000020 9e 34 9d be dc b3 2b be 25 40 bb bd 5b ea 95 be
       -0.30704206 -0.1676783 -0.09143094 -0.29280362
000030 a0 99 41 be 7c e2 ef bd d3 ef 4d 3d 82 c9 b7 bd
       -0.1890626 -0.1171312 0.050277542 -0.089739814
000040 b0 bf a6 be 55 f1 d3 bd 0f 12 32 be b5 3c 82 bd
       -0.3256812 -0.10348765 -0.17389701 -0.06359235
000050 70 b8 c8 bd bd 74 8f 3e 11 80 df bd 29 15 45 be
       -0.09800804 0.28018752 -0.109130986 -0.19246353
000060 de 2a b1 bc 8c 5e c5 bd 5a 8b ae be 9d 13 13 be
       -0.021626886 -0.09637174 -0.34090692 -0.1436295
000070 03 8d c9 bd 1d 4e 0e be c1 c4 7c bd 10 8e e4 bd
       -0.09841349 -0.13896985 -0.061711077 -0.11159909

bn2.running_mean f4 [32]
000000 65 e0 7a bf e8 f0 58 bf e9 81 48 bf e2 4c 1f bf
       -0.9799865 -0.84742594 -0.7832323 -0.6222669
000010 f2 cd 86 bf 42 cb 03 bf aa 54 46 bf 08 b7 d5 bd
       -1.05316 -0.5148202 -0.7747294 -0.10435301
000020 a1 a8 8f bf e9 9e 99 bf 9f 73 48 bf 9f 5a 92 bf
       -1.1223336 -1.200162 -0.78301424 -1.1433905
000030 2e 28 9c bf c7 28 38 bf 86 2f c4 be ec 27 73 bf
       -1.2199762 -0.7193722 -0.38317508 -0.9498279
000040 ff ab 87 bf 6a dc 48 bf 8f b5 7c bf 45 8d 0f bf
       -1.0599364 -0.78461325 -0.98714536 -0.56074935
000050 b2 db 6e bf fe bc c8 be 0b 9b 47 bf f1 0d 81 bf
       -0.9330398 -0.3920669 -0.7797095 -1.008238
000060 8f e5 0c bf e8 63 88 bf e1 79 03 3f 34 0e a2 bf
       -0.5503778 -1.0655489 0.5135785 -1.2660584
000070 01 77 c0 bf 09 a8 b3 be 3d 01 b7 be bf 66 8b bf
       -1.5036317 -0.35089138 -0.35743132 -1.0890731

bn2.running_var f4 [32]
000000 4a 57 a9 3f 90 7c 90 3f bc 41 37 3f 9d 62 56 3f
       1.3229764 1.1288013 0.7158468 0.8374422
000010 ef 7c 2f 3f de a6 09 3f 92 41 34 3f 46 d4 57 3f
       0.6855001 0.53770244 0.7041255 0.8430828
000020 c2 6f 19 3f 53 a6 87 3f 69 5d 0f 3f 71 78 8c 3f
       0.59936154 1.0597633 0.5600191 1.0974256
000030 e0 6a b7 3f c6 ad 49 3f a8 54 4c 3f c7 11 41 3f
       1.4329491 0.7878078 0.79816675 0.7541775
000040 23 4e 9b 3f 0d 7e 57 3f b6 5b 5e 3f a2 7b 72 3f
       1.213322 0.84176713 0.8685869 0.947199
000050 f3 b2 4a 3f 49 e2 be 3e 2f ea a1 3f 6a 09 56 3f
       0.79179305 0.37282017 1.2649592 0.83608115
000060 27 9f 2a 3f 2d db 30 3f 9b 5a 3a 3f 3d eb 71 40
       0.666491 0.69084436 0.727945 3.7799828
000070 b0 cd 59 3f cf d6 43 3f 80 05 a7 3f 71 3a 54 3f
       0.8507948 0.76499647 1.3048553 0.82901675

bn3.weight f4 [64]
000000 00 02 71 3f 41 f3 8b 3f a6 2e 66 3f 87 ce 11 3f
       0.94143677 1.093361 0.8991493 0.5695576
000010 49 5b 2b 3f ad f7 4d 3f 72 3f 74 3f 53 e3 5b 3f
       0.66936165 0.8045605 0.9540931 0.85893744
000020 00 ec 5b 3f 20 8d 33 3f ae ce 5e 3f bb 7c 5e 3f
       0.8590698 0.70137215 0.8703412 0.86909074
000030 93 ca 2e 3f 79 5c 2c 3f b8 84 82 3f e1 73 23 3f
       0.68277854 0.673286 1.0196753 0.6384869
000040 17 b7 3e 3f 37 cb 87 3f 1b a0 80 3f 33 a6 70 3f
       0.7449812 1.0608891 1.004886 0.940036
000050 f9 bb 3a 3f da c6 49 3f 84 ff 72 3f 48 03 90 3f
       0.72943074 0.7881905 0.94921136 1.1251001
000060 6d 97 65 3f 2a 60 59 3f 22 b1 7a 3f a9 ae 89 3f
       0.8968418 0.8491236 0.97926533 1.0756427
000070 ca 19 79 3f a7 fd 43 3f c7 52 80 3f ce 56 42 3f
       0.97304976 0.7655892 1.0025262 0.75913703
000080 37 72 6e 3f 39 b3 33 3f 71 b8 4a 3f d8 30 7f 3f
       0.9314303 0.7019535 0.79187685 0.99683905
000090 f5 ee 7e 3f 60 73 90 3f 84 6e 34 3f ed 8f 7a 3f
       0.9958337 1.128521 0.70481133 0.97875863
0000a0 7a 51 70 3f bf 79 80 3f 4f d4 70 3f 00 96 3a 3f
       0.93874323 1.0037154 0.9407396 0.7288513
0000b0 33 43 46 3f 07 aa 4c 3f 41 f6 57 3f 2d bc 5c 3f
       0.7744629 0.7994694 0.8436013 0.86224633
0000c0 34 d3 3e 3f fd cc 39 3f e8 35 50 3f 98 1d 49 3f
       0.7454102 0.7257841 0.81332254 0.7856078
0000d0 ae 7f 78 3f a9 8e 59 3f 73 04 6d 3f 0d 3b 1f 3f
       0.97069824 0.8498331 0.92584914 0.6219948
0000e0 e9 ed 59 3f a3 d5 46 3f ac 20 4b 3f f5 7a 5c 3f
       0.8512865 0.77669734 0.7934673 0.8612512
0000f0 9c 4b 6a 3f b1 e3 41 3f a0 1b 49 3f 16 ee 87 3f
       0.9152162 0.75738055 0.7855778 1.0619533

bn3.bias f4 [64]
000000 f3 e4 c7 be 4c 97 d9 be 1a 5d dc be cf ea ec be
       -0.39041862 -0.42498243 -0.4303978 -0.46272895
000010 b8 bd a8 be 2f 31 a1 be 2f cb 9e be b3 9c d6 be
       -0.32957244 -0.31482837 -0.31014392 -0.41916427
000020 62 2d 2c be 66 3d 8e be e3 0a c2 be 95 5a dc be
       -0.16814187 -0.27781218 -0.3789893 -0.4303786
000030 88 34 04 be fc e1 7c be 87 03 d6 be 2a e6 98 be
       -0.12910664 -0.24695581 -0.41799566 -0.298631
000040 57 69 c1 be c0 97 b4 be 71 51 a8 be 8a 36 d1 be
       -0.3777568 -0.35272026 -0.32874635 -0.40861923
000050 b5 7d c5 be 2e a4 9e be cb ce ac be 93 61 ef be
       -0.3857247 -0.30984634 -0.3375152 -0.4675413
000060 59 06 b7 bd d0 f1 ea be e6 90 9e be bb 65 dd be
       -0.089367576 -0.45887613 -0.30969924 -0.43241677
000070 44 13 cf be b0 ff ac be 98 33 bb be a8 1c 3a be
       -0.40444386 -0.33788824 -0.365628 -0.18174994
000080 6d 40 b5 be e8 7c 28 be 2a cc c8 be 5f 65 ef 3b
       -0.35400715 -0.16453898 -0.39218265 0.0073057855
000090 26 da f4 be 23 fd 9d be f1 d5 ee bd 00 fc cb be
       -0.47822684 -0.3085719 -0.116619 -0.39840698
0000a0 07 f9 da be 78 6a d0 be d7 27 57 bc f9 63 61 be
       -0.42768118 -0.4070623 -0.013132057 -0.22010793
0000b0 cc 33 c9 be f8 bb b1 be f6 63 3e be 82 aa 88 be
       -0.3929733 -0.3471372 -0.1859282 -0.26692587
0000c0 a5 e0 85 be 8e 3d d0 be 10 05 b1 be b7 76 1b be
       -0.26147953 -0.40671962 -0.34574175 -0.15182005
0000d0 a6 f0 f6 be 00 cf 38 be 7b 0c d4 be d8 ee a3 be
       -0.48230475 -0.18047714 -0.41415772 -0.3201816
0000e0 0b 2c 61 be f0 2f ee be ea 55 af be bc 0f e0 be
       -0.21989457 -0.46520948 -0.34245235 -0.43762004
0000f0 6e 3e ef be 02 4c ac be 0f ef 9e be 84 8e bf be
       -0.46727318 -0.3365174 -0.31041762 -0.37413418

bn3.running_mean f4 [64]
000000 77 72 62 bf 16 80 06 bf 03 c4 c3 bd 1e ec 3a bf
       -0.8845591 -0.52539194 -0.09558871 -0.73016536
000010 f3 58 0e c0 3d 45 5f bf 79 6f e5 be 0d cf 36 be
       -2.224179 -0.87215024 -0.4481161 -0.17852421
000020 b5 7b c6 bf b7 a4 b7 bf 28 07 af bf 0a 5b f6 be
       -1.5506502 -1.4347142 -1.3674059 -0.48116332
000030 0f fe c5 bf 2a a9 bc be 43 27 d2 3f 8a 8f 27 bf
       -1.5468158 -0.36847812 1.6418232 -0.654534
000040 68 f8 70 bf 87 a4 12 bf b6 2d 71 3f 5f 99 58 bf
       -0.9412904 -0.572823 0.94210374 -0.84609026
000050 eb d1 96 bf 33 ff 3e bf d7 63 9e bf 66 34 d0 3d
       -1.1782812 -0.74608153 -1.2374219 0.10166244
000060 ae 6a f2 bf 10 20 30 bf de 80 ea bf b7 df 09 bf
       -1.8938806 -0.68798923 -1.8320577 -0.53856987
000070 8a ee 4b bf a5 83 d7 be f5 5d 74 bf a6 64 b4 bf
       -0.79660857 -0.42092624 -0.9545587 -1.4093215
000080 4c b3 6e be a0 db 4f bf 9d 0b 75 bf 9c d8 aa bf
       -0.23310584 -0.81194496 -0.95720845 -1.3347354
000090 6f b4 ca be 39 4f d5 be d2 74 c7 bf 6f 3f 3a bf
       -0.39590785 -0.41662005 -1.5582526 -0.7275304
0000a0 ef 97 ac bf ac 70 19 bf c2 a8 97 bf ea 6f b8 bf
       -1.3483866 -0.5993755 -1.1848376 -1.4409153
0000b0 54 2b 0e bf 4e f7 00 bf a9 db bb bf 0e f7 8e bf
       -0.55534863 -0.50377357 -1.467641 -1.1169145
0000c0 37 6b c6 bf bd 6b 49 be ec 07 b1 bf 87 67 95 bf
       -1.5501469 -0.19670005 -1.3830543 -1.1672219
0000d0 8b ec 5a bf 12 f4 eb bf d5 83 68 be 5e aa e3 bf
       -0.85517186 -1.8433859 -0.2270654 -1.7786367
0000e0 8c 58 6b bf 75 18 c0 be 8d d2 7a bf b6 96 9e 3f
       -0.91931987 -0.3751866 -0.97977525 1.2389743
0000f0 f8 21 8e bf ca a4 01 be fc c6 0f 3f e3 e0 b2 be
       -1.1104116 -0.12660518 0.56163 -0.349372

bn3.running_var f4 [64]
000000 8a f2 45 3f 5a 2a 6e 3f 0b 92 90 3f 67 ed 2d 3f
       0.7732321 0.93033373 1.1294569 0.6794037
000010 91 01 9a 3f 98 6c 90 3f 81 f8 34 3f f8 05 f1 3e
       1.2031728 1.128314 0.70691687 0.47074866
000020 ed b1 7c 3f 51 ac 6f 3f 6d 97 9a 3f 77 09 13 3f
       0.98708993 0.9362231 1.2077461 0.5743632
000030 54 32 65 3f 5d 57 8a 3f fe 08 28 3f f2 13 41 3f
       0.8952992 1.0807911 0.6563872 0.7542106
000040 af 34 87 3f 4b 7c 4d 3f ec fc 1f 3f 00 7b 9c 3f
       1.0562953 0.8026778 0.62495303 1.2225037
000050 8a 4e 38 3f bb 9b 56 3f b7 1f 87 3f b6 34 86 3f
       0.7199484 0.83831376 1.0556554 1.0484836
000060 df 13 72 3f ed 4f 20 3f a2 cc d7 3f ef c0 1d 3f
       0.9456157 0.6262196 1.6859324 0.6162252
000070 87 f1 47 3f e1 a0 20 3f ac 59 95 3f 19 88 69 3f
       0.78102916 0.6274548 1.1667991 0.91223294
000080 14 b9 12 3f 4f 2a 26 3f eb a3 30 3f a5 4c 47 3f
       0.57313657 0.6490831 0.6900012 0.77851325
000090 9c a2 0f 3f d1 df 8e 3f a1 7b 6e 3f fd 25 27 3f
       0.561075 1.1162053 0.9315739 0.6529234
0000a0 ef ad 6e 3f e8 c3 8e 3f fe 47 5b 3f 71 c3 8d 3f
       0.9323415 1.1153536 0.85656726 1.1075269
0000b0 7e de 62 3f 88 0d 64 3f 0f d3 61 3f e9 45 10 3f
       0.88620746 0.8908315 0.88212675 0.56356674
0000c0 3d f5 6b 3f 54 d1 5c 3f 8d 7e 63 3f cf 46 8c 3f
       0.9217108 0.8625691 0.88864976 1.0959109
0000d0 3d ed 54 3f e5 e5 6d 3f ef 13 38 3f 08 16 87 3f
       0.83174497 0.92928916 0.71905416 1.0553598
0000e0 30 26 62 3f 2b 4d 13 3f 25 2b 39 3f ba 17 ea 3e
       0.8833952 0.57539624 0.7233146 0.45721227
0000f0 02 40 96 3f 2c f6 4e 3f d6 8c 38 3f e7 4d 1d 3f
       1.1738284 0.8084438 0.720899 0.61446995

bn4.weight f4 [128]
000000 f3 6f 67 3f 21 8f 70 3f 73 05 6e 3f b4 d6 6e 3f
       0.90405196 0.939684 0.92977065 0.9329636
000010 18 b6 68 3f 0d 7a 6e 3f e7 a1 5e 3f 4f 8b 60 3f
       0.90902853 0.93154985 0.86965793 0.8771257
000020 c2 0d 69 3f 08 e2 6c 3f 36 1a 67 3f 4f fd 6b 3f
       0.9103662 0.92532396 0.9027437 0.92183393
000030 a0 58 6c 3f 68 a3 73 3f e2 54 69 3f d9 5b 6c 3f
       0.9232273 0.95171213 0.91145146 0.9232765
000040 b9 b5 70 3f b2 03 6b 3f 19 99 72 3f b2 73 66 3f
       0.94027287 0.91802514 0.9476486 0.9002029
000050 b1 f0 6c 3f f2 71 65 3f 68 97 6c 3f 24 76 64 3f
       0.92554766 0.8962699 0.9241853 0.8924277
000060 6a 42 75 3f ee 47 68 3f fc 4d 69 3f e6 fc 65 3f
       0.95804465 0.90734756 0.9113462 0.8983902
000070 86 38 6d 3f 9b ba 6d 3f 01 27 6b 3f e0 a6 6d 3f
       0.9266437 0.9286286 0.9185639 0.92832756
000080 53 f2 69 3f a8 65 6c 3f 06 13 63 3f bb a3 66 3f
       0.9138538 0.92342615 0.887009 0.9009358
000090 01 d2 5e 3f d3 86 5d 3f 75 56 72 3f 04 b8 6a 3f
       0.8703919 0.8653385 0.9466317 0.91687036
0000a0 92 49 6b 3f f1 7b 6e 3f b4 75 6b 3f 99 09 64 3f
       0.91909134 0.9315787 0.91976476 0.89077145
0000b0 04 d1 66 3f 65 6c 6c 3f f9 48 64 3f 3d 5a 60 3f
       0.9016268 0.92352897 0.8917385 0.8763769
0000c0 b1 9d 6f 3f 7b e5 61 3f 30 6c 69 3f 97 bd 6b 3f
       0.93599993 0.88240784 0.91180706 0.92086166
0000d0 24 f0 6e 3f 9c 68 62 3f 5c 06 6f 3f 11 04 73 3f
       0.93335176 0.8844087 0.9336908 0.9492808
0000e0 4c 0e 64 3f 39 2c 6d 3f 8d 12 6c 3f ee f7 6c 3f
       0.89084315 0.92645603 0.92215806 0.9256581
0000f0 72 8b 6a 3f 8b 74 6b 3f 09 87 6e 3f 19 f0 73 3f
       0.91619027 0.91974705 0.931748 0.95288235
000100 9c f2 64 3f fb d8 62 3f ef 8e 76 3f 83 19 68 3f
       0.8943269 0.88612336 0.9631185 0.9066393
000110 2d 6e 6a 3f ae 7a 68 3f 5c 76 69 3f 70 cb 68 3f
       0.91574365 0.90812194 0.9119623 0.9093542
000120 e4 61 63 3f 32 6c 6c 3f 42 5c 72 3f d9 9a 68 3f
       0.88821244 0.9235259 0.94672024 0.9086128
000130 7e 4a 6e 3f 2d 11 66 3f 5d 0c 6f 3f 70 b8 58 3f
       0.93082416 0.8986996 0.9337824 0.8465643
000140 63 83 66 3f 55 c5 69 3f 9b 13 6d 3f f1 fa 69 3f
       0.9004423 0.9131673 0.9260804 0.9139853
000150 85 34 6f 3f 95 63 63 3f 5d 12 66 3f bc 0a 70 3f
       0.93439513 0.88823825 0.8987177 0.9376638
000160 15 9d 6d 3f ce 03 68 3f 9b 15 6d 3f dd ce 6e 3f
       0.92817813 0.90630805 0.9261109 0.932844
000170 00 de 6c 3f 1d 28 69 3f f5 40 5d 3f fb bf 6b 3f
       0.92526245 0.91076833 0.8642724 0.92089814
000180 28 e9 6f 3f 6c e6 63 3f 0c 5e 73 3f da e4 72 3f
       0.93715143 0.8902347 0.9506538 0.9488045
000190 c5 fb 70 3f ec d8 71 3f bf f7 69 3f 03 30 6e 3f
       0.9413417 0.9447162 0.91393656 0.9304201
0001a0 e9 73 6f 3f 97 e0 66 3f 6a 40 6e 3f 36 ff 64 3f
       0.9353624 0.90186447 0.9306704 0.8945192
0001b0 22 39 78 3f 19 d1 6d 3f f4 f7 75 3f 2a 9f 62 3f
       0.9696218 0.9289718 0.9608147 0.88524115
0001c0 3c d9 6b 3f 5e 1d 66 3f d0 3d 6e 3f 6c 1c 6b 3f
       0.9212835 0.8988856 0.9306307 0.91840243
0001d0 fe 74 6e 3f aa 9f 73 3f c5 a9 6f 3f 7e ac 71 3f
       0.93147266 0.95165503 0.9361842 0.9440383
0001e0 ef b9 5e 3f 83 69 6f 3f 51 63 64 3f d3 77 67 3f
       0.8700246 0.93520373 0.89214045 0.9041721
0001f0 4f ea 6d 3f 28 6c 6d 3f 92 bc 5f 3f 0f d1 76 3f
       0.9293565 0.9274316 0.8739711 0.9641275
